Model: "model_2"
__________________________________________________________________________________________________
Layer (type)                    Output Shape         Param #     Connected to                     
==================================================================================================
input_3 (InputLayer)            (None, 48, 48, 1)    0                                            
__________________________________________________________________________________________________
conv2d_7 (Conv2D)               (None, 48, 48, 16)   160         input_3[0][0]                    
__________________________________________________________________________________________________
activation_7 (Activation)       (None, 48, 48, 16)   0           conv2d_7[0][0]                   
__________________________________________________________________________________________________
conv2d_8 (Conv2D)               (None, 48, 48, 16)   2320        activation_7[0][0]               
__________________________________________________________________________________________________
activation_8 (Activation)       (None, 48, 48, 16)   0           conv2d_8[0][0]                   
__________________________________________________________________________________________________
max_pooling2d_4 (MaxPooling2D)  (None, 24, 24, 16)   0           activation_8[0][0]               
__________________________________________________________________________________________________
conv2d_9 (Conv2D)               (None, 24, 24, 32)   4640        max_pooling2d_4[0][0]            
__________________________________________________________________________________________________
activation_9 (Activation)       (None, 24, 24, 32)   0           conv2d_9[0][0]                   
__________________________________________________________________________________________________
conv2d_10 (Conv2D)              (None, 24, 24, 32)   9248        activation_9[0][0]               
__________________________________________________________________________________________________
activation_10 (Activation)      (None, 24, 24, 32)   0           conv2d_10[0][0]                  
__________________________________________________________________________________________________
max_pooling2d_5 (MaxPooling2D)  (None, 12, 12, 32)   0           activation_10[0][0]              
__________________________________________________________________________________________________
conv2d_11 (Conv2D)              (None, 12, 12, 64)   18496       max_pooling2d_5[0][0]            
__________________________________________________________________________________________________
activation_11 (Activation)      (None, 12, 12, 64)   0           conv2d_11[0][0]                  
__________________________________________________________________________________________________
conv2d_12 (Conv2D)              (None, 12, 12, 64)   36928       activation_11[0][0]              
__________________________________________________________________________________________________
activation_12 (Activation)      (None, 12, 12, 64)   0           conv2d_12[0][0]                  
__________________________________________________________________________________________________
max_pooling2d_6 (MaxPooling2D)  (None, 6, 6, 64)     0           activation_12[0][0]              
__________________________________________________________________________________________________
dropout_2 (Dropout)             (None, 6, 6, 64)     0           max_pooling2d_6[0][0]            
__________________________________________________________________________________________________
flatten_2 (Flatten)             (None, 2304)         0           dropout_2[0][0]                  
__________________________________________________________________________________________________
dense_2 (Dense)                 (None, 3)            6915        flatten_2[0][0]                  
__________________________________________________________________________________________________
input_4 (InputLayer)            (None, 8)            0                                            
__________________________________________________________________________________________________
arc_face_2 (ArcFace)            (None, 8)            24          dense_2[0][0]                    
                                                                 input_4[0][0]                    
==================================================================================================
Total params: 78,731
Trainable params: 78,731
Non-trainable params: 0
__________________________________________________________________________________________________
…
