Config -----
name: emotions_vgg8_3d
arch: vgg8
num_features: 3
scheduler: CosineAnnealing
epochs: 100
batch_size: 128
optimizer: SGD
lr: 0.1
min_lr: 0.001
momentum: 0.5
------------
Model: "model_2"
_________________________________________________________________
Layer (type)                 Output Shape              Param #   
=================================================================
input_2 (InputLayer)         (None, 48, 48, 1)         0         
_________________________________________________________________
conv2d_7 (Conv2D)            (None, 48, 48, 16)        160       
_________________________________________________________________
activation_7 (Activation)    (None, 48, 48, 16)        0         
_________________________________________________________________
conv2d_8 (Conv2D)            (None, 48, 48, 16)        2320      
_________________________________________________________________
activation_8 (Activation)    (None, 48, 48, 16)        0         
_________________________________________________________________
max_pooling2d_4 (MaxPooling2 (None, 24, 24, 16)        0         
_________________________________________________________________
conv2d_9 (Conv2D)            (None, 24, 24, 32)        4640      
_________________________________________________________________
activation_9 (Activation)    (None, 24, 24, 32)        0         
_________________________________________________________________
conv2d_10 (Conv2D)           (None, 24, 24, 32)        9248      
_________________________________________________________________
activation_10 (Activation)   (None, 24, 24, 32)        0         
_________________________________________________________________
max_pooling2d_5 (MaxPooling2 (None, 12, 12, 32)        0         
_________________________________________________________________
conv2d_11 (Conv2D)           (None, 12, 12, 64)        18496     
_________________________________________________________________
activation_11 (Activation)   (None, 12, 12, 64)        0         
_________________________________________________________________
conv2d_12 (Conv2D)           (None, 12, 12, 64)        36928     
_________________________________________________________________
activation_12 (Activation)   (None, 12, 12, 64)        0         
_________________________________________________________________
max_pooling2d_6 (MaxPooling2 (None, 6, 6, 64)          0         
_________________________________________________________________
dropout_2 (Dropout)          (None, 6, 6, 64)          0         
_________________________________________________________________
flatten_2 (Flatten)          (None, 2304)              0         
_________________________________________________________________
dense_3 (Dense)              (None, 3)                 6915      
_________________________________________________________________
dense_4 (Dense)              (None, 8)                 32        
=================================================================
Total params: 78,739
Trainable params: 78,739
Non-trainable params: 0
_________________________________________________________________
Train on 25045 samples, validate on 3137 samples

_________________________________________________________________
Train on 25045 samples, validate on 3137 samples
25045/25045 [==============================] - 47s 2ms/step - loss: 0.8751 - accuracy: 0.7119 - val_loss: 0.9609 - val_accuracy: 0.6882
…
